…
user                       : hzz5361
hostname                   : e5-cse-cbnlp01
ts                         : 2022-12-01T16-42-22.325441

Net(
  (conv_first): TransformerConv(151, 64, heads=1)
  (conv_layers): ModuleList(
    (0): TransformerConv(64, 64, heads=1)
    (1): TransformerConv(64, 64, heads=1)
    (2): TransformerConv(64, 64, heads=1)
    (3): TransformerConv(64, 64, heads=1)
    (4): TransformerConv(64, 64, heads=1)
  )
  (jkn): JumpingKnowledge(max)
  (loss_fucntion): MSELoss()
  (MLPs): ModuleDict(
    (perf): MLP(
      (activation): ELU(alpha=1.0)
      (layers): ModuleList(
        (0): Linear(in_features=64, out_features=32, bias=True)
        (1): Linear(in_features=32, out_features=16, bias=True)
        (2): Linear(in_features=16, out_features=8, bias=True)
        (3): Linear(in_features=8, out_features=1, bias=True)
      )
    )
    (util-LUT): MLP(
      (activation): ELU(alpha=1.0)
      (layers): ModuleList(
        (0): Linear(in_features=64, out_features=32, bias=True)
        (1): Linear(in_features=32, out_features=16, bias=True)
        (2): Linear(in_features=16, out_features=8, bias=True)
        (3): Linear(in_features=8, out_features=1, bias=True)
      )
    )
    (util-FF): MLP(
      (activation): ELU(alpha=1.0)
      (layers): ModuleList(
        (0): Linear(in_features=64, out_features=32, bias=True)
        (1): Linear(in_features=32, out_features=16, bias=True)
        (2): Linear(in_features=16, out_features=8, bias=True)
        (3): Linear(in_features=8, out_features=1, bias=True)
      )
    )
    (util-DSP): MLP(
      (activation): ELU(alpha=1.0)
      (layers): ModuleList(
        (0): Linear(in_features=64, out_features=32, bias=True)
        (1): Linear(in_features=32, out_features=16, bias=True)
        (2): Linear(in_features=16, out_features=8, bias=True)
        (3): Linear(in_features=8, out_features=1, bias=True)
      )
    )
    (util-BRAM): MLP(
      (activation): ELU(alpha=1.0)
      (layers): ModuleList(
        (0): Linear(in_features=64, out_features=32, bias=True)
        (1): Linear(in_features=32, out_features=16, bias=True)
        (2): Linear(in_features=16, out_features=8, bias=True)
        (3): Linear(in_features=8, out_features=1, bias=True)
      )
    )
  )
  (gate_nn): Sequential(
    (0): Linear(in_features=64, out_features=64, bias=True)
    (1): ReLU()
    (2): Linear(in_features=64, out_features=1, bias=True)
  )
  (glob): MyGlobalAttention(gate_nn=Sequential(
    (0): Linear(in_features=64, out_features=64, bias=True)
    (1): ReLU()
    (2): Linear(in_features=64, out_features=1, bias=True)
  ), nn=None)
)
